…
 at https://platform.ultralytics.com/shahab-bahreini-jangjoo/poles-mask/p3
Downloading https://storage.googleapis.com/alpha-ultralytics-us/exports/6a356a6c3f9613910182defb/poles.ndjson to 'shahab-bahreini-jangjoo/datasets/poles/poles.ndjson': 100% ━━━━━━━━━━━━ 16.0MB 96.2MB/s 0.2s
Converting poles.ndjson → /datasets/poles-b476139e (50951 images): 100% ━━━━━━━━━━━━ 50951/50951 1.1Kit/s 48.3s
Overriding model.yaml kpt_shape=[17, 3] with kpt_shape=[1, 3]

                   from  n    params  module                                       arguments
  0                  -1  1      2784  ultralytics.nn.modules.conv.Conv             [3, 96, 3, 2]
  1                  -1  1    166272  ultralytics.nn.modules.conv.Conv             [96, 192, 3, 2]
  2                  -1  2    389760  ultralytics.nn.modules.block.C3k2            [192, 384, 2, True, 0.25]
  3                  -1  1   1327872  ultralytics.nn.modules.conv.Conv             [384, 384, 3, 2]
  4                  -1  2   1553664  ultralytics.nn.modules.block.C3k2            [384, 768, 2, True, 0.25]
  5                  -1  1   5309952  ultralytics.nn.modules.conv.Conv             [768, 768, 3, 2]
  6                  -1  2   5022720  ultralytics.nn.modules.block.C3k2            [768, 768, 2, True]
  7                  -1  1   5309952  ultralytics.nn.modules.conv.Conv             [768, 768, 3, 2]
  8                  -1  2   5022720  ultralytics.nn.modules.block.C3k2            [768, 768, 2, True]
  9                  -1  1   1476864  ultralytics.nn.modules.block.SPPF            [768, 768, 5, 3, True]
 10                  -1  2   3264768  ultralytics.nn.modules.block.C2PSA           [768, 768, 2]
 11                  -1  1         0  torch.nn.modules.upsampling.Upsample         [None, 2, 'nearest']
 12             [-1, 6]  1         0  ultralytics.nn.modules.conv.Concat           [1]
 13                  -1  2   5612544  ultralytics.nn.modules.block.C3k2            [1536, 768, 2, True]
 14                  -1  1         0  torch.nn.modules.upsampling.Upsample         [None, 2, 'nearest']
 15             [-1, 4]  1         0  ultralytics.nn.modules.conv.Concat           [1]
 16                  -1  2   1700352  ultralytics.nn.modules.block.C3k2            [1536, 384, 2, True]
 17                  -1  1   1327872  ultralytics.nn.modules.conv.Conv             [384, 384, 3, 2]
 18            [-1, 13]  1         0  ultralytics.nn.modules.conv.Concat           [1]
 19                  -1  2   5317632  ultralytics.nn.modules.block.C3k2            [1152, 768, 2, True]
 20                  -1  1   5309952  ultralytics.nn.modules.conv.Conv             [768, 768, 3, 2]
 21            [-1, 10]  1         0  ultralytics.nn.modules.conv.Concat           [1]
 22                  -1  1   4436736  ultralytics.nn.modules.block.C3k2            [1536, 768, 1, True, 0.5, True]
 23        [16, 19, 22]  1  10132884  ultralytics.nn.modules.head.Pose26           [1, [1, 3], 1, True, [384, 768, 768]]
YOLO26x-pose summary: 495 layers, 62,685,300 parameters, 62,685,300 gradients, 225.1 GFLOPs

Transferred 1239/1263 items from pretrained weights
AMP: running Automatic Mixed Precision (AMP) checks...
AMP: checks passed ✅
train: Fast image access ✅ (ping: 0.0±0.0 ms, read: 5569.4±2757.8 MB/s, size: 137.4 KB)
train: Scanning /datasets/poles-b476139e/labels/train... 35656 images, 5571 backgrounds, 0 corrupt: 100% ━━━━━━━━━━━━ 35656/35656 2.7Kit/s 13.0s
…
